mess_app/ml/dqn_mess_model.pth (torch, 161469 bytes, 12 tensors)

fc1.weight f4 [128, 15]
0	0xbe1a6b31	-0.15079953
1	0x3e81b2fe	0.25331873
2	0xbe29d90d	-0.16586705
3	0xbe4eaa99	-0.20182265
4	0xbe08161e	-0.13289687
5	0x3e4c24de	0.19935939
6	0x3c8fa40a	0.017534275
7	0xbe6e6cf6	-0.23283753
8	0xbe7aee96	-0.24505076
9	0x3d76614a	0.060151376
10	0xbe5139f2	-0.2043226
11	0xbdf8fabc	-0.12157199
12	0xbc47882c	-0.012178462
13	0xbde0a612	-0.109691754
14	0xbe840d4e	-0.257914
15	0xbe512871	-0.20425583
16	0xbc970313	-0.018434083
17	0xbe296a95	-0.16544564
18	0xbec36b74	-0.38167918
19	0x3d40c657	0.04706415
20	0x3dde685c	0.10859749
21	0x3e007620	0.12545061
22	0xbeab1d5c	-0.33420837
23	0x3a6d7dc8	0.00090595754
24	0xbe22681d	-0.15860029
25	0x3eaa33fe	0.33242792
26	0x3e659125	0.2241865
27	0xbeaf0310	-0.34182024
28	0x3d40450e	0.046940856
29	0xbe683a52	-0.22678497
30	0x3c4e0332	0.012574004
31	0xbd1e720c	-0.038682982
32	0xbec1c9ca	-0.37849265
33	0x3e500672	0.20314959
34	0x3e468053	0.1938489
35	0x3e904325	0.28176227
36	0xbe357329	-0.17719711
37	0xbe2470b7	-0.16058622
38	0xbe23c987	-0.15994845
39	0xbdd3db88	-0.10344607
40	0x3e8ba3e2	0.2727347
41	0xbd93fdca	-0.07226141
42	0x3ca599cb	0.020214936
43	0x3b313303	0.0027038462
44	0xbec2f57d	-0.38077918
45	0xbdf9d84e	-0.1219946
46	0x3e83beea	0.25731593
47	0xbee0c7ca	-0.43902427
48	0xbcdf8739	-0.027286159
49	0xbe8ac939	-0.27106646
50	0xbb278b44	-0.0025565187
51	0xbe9d6579	-0.3074148
52	0xbea3a91a	-0.31964952
53	0xbee49ada	-0.44649392
54	0x3ec5c91b	0.38629994
55	0x3eb26e99	0.34850004
56	0xbdf484c4	-0.119393855
57	0xbecbad0c	-0.39780462
58	0xbe3c8552	-0.18410233
59	0xbe3c3958	-0.1838125
60	0xbe030af9	-0.12797154
61	0x3ec019c9	0.37519673
62	0x3e02c6f4	0.12771207
63	0x3d6b7844	0.05748774
64	0x3d0f0a48	0.034921914
65	0xbe97f965	-0.2968246
66	0xbdfcda06	-0.12346272
67	0x3da870b9	0.08224625
68	0xbeaa3908	-0.33246636
69	0x3d7f2e52	0.062300034
70	0x3e7a4b0a	0.24442688
71	0x3e953e11	0.29148915
72	0xbba7b2c7	-0.0051177475
73	0xbe71e706	-0.23623285
74	0xbebbe25c	-0.36696136
75	0xbecf3cc4	-0.40476048
76	0xbeee80dc	-0.46582687
77	0x3f3c2532	0.73494256
78	0xbc6354cd	-0.013875199
79	0xbf04b8b1	-0.51844317
80	0x3cefec0b	0.029287359
81	0xbe7702e1	-0.24122192
82	0xbf3aa1ea	-0.7290331
83	0x3bc2283b	0.005925206
84	0xbb2b813d	-0.0026169561
85	0x3e23ae88	0.15984547
86	0x3f1e52ae	0.6184491
87	0xbe2b476f	-0.16726469
88	0xbcb76759	-0.022388147
89	0xbdb46847	-0.08808952
90	0x3c92e760	0.017932594
91	0xbe2bc626	-0.16774806
92	0x3ccf7670	0.02532503
93	0xbe3492c4	-0.17634112
94	0x3e5f0a0a	0.21781173
95	0xbe624f96	-0.22100672
96	0xbe21c85e	-0.1579909
97	0xbe87e581	-0.26542285
98	0xbd83fbe4	-0.06444529
99	0x3dc7394c	0.097277254
100	0xbe64fdf0	-0.22362494
101	0x3d913d3c	0.07091758
102	0xbe7e06aa	-0.2480723
103	0x3d2d90e2	0.0423745
104	0x3d9aa340	0.07550669
105	0xbf2fe525	-0.6870902
106	0xbd60c4e1	-0.05487526
107	0xbf3e6af0	-0.74381924
108	0x3f20ded1	0.6283999
109	0xbf1c7366	-0.61113584
110	0xbf253d73	-0.6454689
111	0xbf1743df	-0.5908794
112	0x3e8effe5	0.27929607
113	0xbf774af5	-0.9659875
114	0xbe77ca9c	-0.24198383
115	0xbd2aab0f	-0.04166704
116	0xbf01f160	-0.50758934
117	0xbe06e70a	-0.13174072
118	0x3ef547e4	0.4790641
119	0xbf3d39e2	-0.7391645
120	0xbe17caef	-0.14823507
121	0xbce1ca4f	-0.027562289
122	0x3e78630a	0.2425653
123	0xbe535c31	-0.20640637
124	0xbe9e6fb0	-0.30944586
125	0x3d8be4ec	0.06830773
126	0xbe3c4079	-0.1838397
127	0xbd8df657	-0.06931751
128	0xbec90611	-0.3926244
129	0xbecb1f5d	-0.39672366
130	0xbe599698	-0.21248853
131	0xbdbfd6dc	-0.09367153
132	0xbea56160	-0.32300854
133	0x3e0c6233	0.13709335
134	0xbdcd8320	-0.10034776
135	0xbe21627e	-0.15760228
136	0xbed424bf	-0.41434285
137	0xbed41c73	-0.41427955
138	0xbe812e0f	-0.25230452
139	0xbe971935	-0.2951142
140	0x3b66d8d2	0.003522445
141	0x3eaaa266	0.33327025
142	0xbcb7470c	-0.022372745
143	0xbdd02251	-0.10162795
144	0x3df0cee4	0.11758211
145	0x3dd7ffa0	0.105468035
146	0xbe787a94	-0.2426551
147	0xbeaaec4a	-0.333834
148	0x3e5925e2	0.21205857
149	0xbe952042	-0.29126173
150	0x3db0b7bd	0.08628795
151	0xbe94886c	-0.29010332
152	0x3e2c9d80	0.16856956
153	0xbea0794c	-0.31342542
154	0xbe216cc0	-0.15764141
155	0x3e5685ac	0.2094943
156	0xbe59def9	-0.21276464
157	0xbeac4c7a	-0.33652097
158	0xbebbb87e	-0.36664194
159	0xbdc2f049	-0.09518487
160	0xbd4d2b1c	-0.05008994
161	0x3ea8d2fd	0.3297347
162	0xbcb41908	-0.021984592
163	0xbd72f42b	-0.059314888
164	0xbeb3c7f9	-0.35113505
165	0xbe62d618	-0.22151983
166	0xbcf035d2	-0.029322539
167	0xbcff92a7	-0.031197859
168	0xbf258f77	-0.64672035
169	0xbf2e0d73	-0.6798927
170	0x3d7c43d9	0.061588142
171	0xbf2043c8	-0.62603426
172	0x3ba487ed	0.0050210864
173	0xbf4a7353	-0.7908222
174	0xbdccc45f	-0.09998392
175	0x3c8a0490	0.016847879
176	0x3f156b0f	0.58366483
177	0xbed5b465	-0.41739193
178	0xbe99fcd2	-0.300757
179	0xbf56a069	-0.83838516
180	0x3d056474	0.032566503
181	0x3e66b21c	0.22528881
182	0x3f19e903	0.6012117
183	0xbeeb2e08	-0.45933557
184	0xbe83708c	-0.25671804
185	0xbe574c43	-0.21025185
186	0xbe7a0e87	-0.24419604
187	0x3dbaf1d9	0.0912816
188	0xbeb21bbd	-0.34786788
189	0x3ed71be3	0.42013463
190	0xbe6ad70a	-0.22933593
191	0x3d012a6a	0.03153459
192	0xbf2a9f83	-0.66649646
193	0xbedb3074	-0.42810404
194	0xbdd8c67d	-0.10584734
195	0xbe424e3a	-0.18975154
196	0x3f044001	0.5166016
197	0xbd83e36a	-0.0643986
198	0xbdcca3d1	-0.09992183
199	0x3cce3343	0.025170928
200	0xbe000b7c	-0.12504381
201	0x3d8ce74e	0.06880055
202	0xbed3842b	-0.41311774
203	0xbcdaee43	-0.02672494
204	0xbdb2ae42	-0.08724643
205	0x3bf86ff3	0.0075817048
206	0x3e81cbc0	0.2535076
207	0xbec5a067	-0.3859894
208	0xbe92f29a	-0.28700715
209	0xbebfe7b8	-0.37481475
210	0x3dfeb977	0.12437718
211	0x3d2a86a2	0.041632302
212	0x3df7d669	0.12101442
213	0xbedb7d61	-0.42869094
214	0xbf0af785	-0.54283935
215	0xbea1464c	-0.31498945
216	0x3d74b2ed	0.05974095
217	0x3d9ef5ef	0.07761752
218	0xbf18d259	-0.59695965
219	0xbe4039ee	-0.18772098
220	0x3e1e7f0e	0.15478155
221	0x3e704ac7	0.23466025
222	0xbeaa0f9f	-0.33215043
223	0xbe924583	-0.28568658
224	0xbea44454	-0.3208338
225	0x3bfa17d0	0.007632233
226	0x3e2851a4	0.16437393
227	0xbe8c3d0b	-0.27390322
228	0x3ca0a868	0.019611552
229	0xbe11bcd4	-0.14232188
230	0xbdcdd589	-0.10050494
231	0xbef6cd31	-0.48203424
232	0xbe7e9afa	-0.24863806
233	0xbe467080	-0.19378853
234	0xbe8b77a4	-0.27239716
235	0x3e8b1a8c	0.2716869
236	0xbee33ab8	-0.44380736
237	0xbe229766	-0.15878066
238	0x3d6ec8ee	0.05829709
239	0xbec69052	-0.38781983
240	0xbddd14c1	-0.10794974
241	0xbcfb5b84	-0.030683286
242	0x3e23b7cc	0.15988082
243	0xbda50a7a	-0.08058639
244	0xbe17dff8	-0.14831531
245	0x3e576530	0.21034694
246	0x3e3b8c5e	0.18315265
247	0xbe1c1e24	-0.15245873
248	0xbe8ebc3b	-0.27877983
249	0xbdcdec9a	-0.10054894
250	0x3c814500	0.015779972
251	0xbe3b2914	-0.18277389
252	0xbe119e06	-0.14220437
253	0xbe90df8d	-0.28295556
254	0x3dad8f50	0.084746
255	0x3e4764ce	0.19472048

fc1.bias f4 [128]
0	0x3dc29252	0.09500565
1	0xbeecd099	-0.46252897
2	0xbeb5dff2	-0.3552242
3	0xbc87dced	-0.016584838
4	0xbe8449ea	-0.25837642
5	0xbe2b855c	-0.16750091
6	0xbe4b4672	-0.19851092
7	0xbe017c98	-0.12645185
8	0xba9f0f05	-0.0012135213
9	0xbe42aa4c	-0.19010276
10	0xbda3f685	-0.08006004
11	0xbdf4eb65	-0.119589604
12	0xbf14399e	-0.57900417
13	0xbd683340	-0.0566895
14	0xbe74b132	-0.2389572
15	0xbc5d5d75	-0.013511051
16	0xbce719ba	-0.02821051
17	0xbdb89397	-0.090125255
18	0xbeaca975	-0.33723035
19	0xbe1c4697	-0.15261303
20	0xbe902621	-0.2815409
21	0xbdb9ef7a	-0.0907888
22	0xbe40a9a7	-0.18814717
23	0xbdfee664	-0.12446287
24	0xbe9027dc	-0.2815541
25	0xbdfee27b	-0.124455415
26	0xbe6c86e1	-0.23098327
27	0xbe6b8a2d	-0.23001929
28	0xbe29f6d6	-0.16598067
29	0xbdfc9c10	-0.12334454
30	0xbe3e5268	-0.18586123
31	0xbf275e4a	-0.6537825
32	0xbe8b7b11	-0.2724233
33	0xbea6e3ea	-0.3259576
34	0xbe8cbc47	-0.27487394
35	0xbbddb31f	-0.0067657377
36	0xbed10f82	-0.40832144
37	0xbeb5aab3	-0.35481796
38	0xbe7faea8	-0.2496897
39	0xbec19ca3	-0.37814817
40	0xbecc0088	-0.39844155
41	0xbe9f6181	-0.31129077
42	0xbe42740d	-0.18989582
43	0xbe1a0133	-0.1503952
44	0x3dc7cd61	0.0975597
45	0xbe83aea2	-0.25719172
46	0xbe489787	-0.19589053
47	0xbe6c6c62	-0.2308822
48	0xbebffea9	-0.37498978
49	0x3bf76438	0.007549789
50	0xbe5e191c	-0.21689266
51	0xbea6d089	-0.32580975
52	0xbeaaa5ee	-0.3332972
53	0xbe91dc29	-0.2848828
54	0xbf0095cf	-0.5022859
55	0xbeb41bc3	-0.3517743
56	0xbe394c0e	-0.18095419
57	0xbe9a75a1	-0.3016787
58	0xbeb943ab	-0.3618444
59	0x3dafbcc4	0.08580926
60	0xbdef392d	-0.11680827
61	0x3c96cc08	0.018407837
62	0xbe0c45eb	-0.13698547
63	0xbecc738c	-0.39931905
64	0xbeed37e2	-0.46331698
65	0xbe6ae439	-0.22938623
66	0xbea5ed3e	-0.32407564
67	0xbe85b08b	-0.26111254
68	0xbe376604	-0.1791001
69	0xbddde82a	-0.108352974
70	0xbe6fecbf	-0.23430155
71	0xbea8bf69	-0.32958534
72	0xbe0eb68a	-0.1393682
73	0x3ddbf2a6	0.10739641
74	0xbe6edea6	-0.23327121
75	0xbde3c28f	-0.111210935
76	0xbd3a4d5b	-0.04548393
77	0xbc5b9487	-0.013402111
78	0xbe6ef1a4	-0.23334366
79	0xbcc6566b	-0.02421113
80	0xbe69d653	-0.22835664
81	0xbe27515a	-0.16339627
82	0xbe3991f8	-0.18122089
83	0x3c0d91f8	0.008640759
84	0xbf074b9c	-0.52849746
85	0xbe60c315	-0.21949418
86	0xbee35780	-0.44402695
87	0xbddfa2cb	-0.10919722
88	0xbebebc7d	-0.3725318
89	0xbe963826	-0.29339713
90	0xbe598de1	-0.21245529
91	0xbe8626b7	-0.26201412
92	0x3d96abf1	0.07357014
93	0xbe7bb503	-0.24580769
94	0xbe1e511e	-0.15460631
95	0xbe75354a	-0.2394611
96	0xbee00c8c	-0.43759573
97	0xbd6d0bd5	-0.057872612
98	0xbd150022	-0.03637708
99	0xbd7db204	-0.061937347
100	0xbddaaa0f	-0.10676967
101	0xbd90f526	-0.07078008
102	0xbe658a84	-0.22416121
103	0xbab0e000	-0.0013494492
104	0xbe869451	-0.2628503
105	0xbd8e67a9	-0.06953365
106	0xbe74e0c3	-0.23913865
107	0xbe1e8d6c	-0.15483636
108	0xbe7af9b4	-0.24509317
109	0xbea14434	-0.31497347
110	0xbe82fd56	-0.25583905
111	0xbe74c60c	-0.23903674
112	0xbdfc13aa	-0.12308438
113	0xbe9da518	-0.3079002
114	0xbe737b84	-0.23777586
115	0x3d346e05	0.044050235
116	0xbdc43d24	-0.09581974
117	0xbeacf85b	-0.3378323
118	0x3d91b1da	0.071140006
119	0xbe90a9c4	-0.2825452
120	0xbee514d6	-0.4474246
121	0xbdd1cb43	-0.10243847
122	0xbed0f4f1	-0.40811875
123	0xbead43be	-0.33840746
124	0xbee026be	-0.43779558
125	0xbe0a2aed	-0.13492937
126	0xbea01e82	-0.31273276
127	0xbe12d6cc	-0.14339751

fc2.weight f4 [128, 128]
0	0xbd79904e	-0.060928635
1	0x3e8a61bb	0.27027687
2	0xbca3afbc	-0.019981258
3	0x39c8ee35	0.0003832445
4	0x3d59cca7	0.053173687
5	0xbe9abd86	-0.3022272
6	0x3d9b4d29	0.075830765
7	0x3e70cc4b	0.23515432
8	0x3b6371a1	0.003470518
9	0xbcf6bd6f	-0.030119626
10	0xbd06e6a6	-0.032934807
11	0x3eb38f55	0.3507029
12	0xbe9d26c9	-0.30693653
13	0x3e950ba9	0.29110458
14	0x3d4a0444	0.049320474
15	0xbb3a3d6d	-0.002841796
16	0xbdec937b	-0.11551567
17	0x3e3315a9	0.17488731
18	0x3e079adf	0.13242672
19	0xbeb560e8	-0.35425496
20	0x3d9a1c85	0.07524971
21	0x3e249e2b	0.16075961
22	0xbe7117d0	-0.2354424
23	0xbe09faa0	-0.13474512
24	0xbb5f1d7f	-0.003404468
25	0xbdb055e7	-0.086101346
26	0xbd8f9158	-0.07010144
27	0xbec355b4	-0.38151324
28	0x3d7e4c02	0.062084205
29	0x3d4d0ebd	0.050062884
30	0xbe4ee2a5	-0.20203646
31	0xbf1d3508	-0.61409044
32	0x3e8541e6	0.2602684
33	0xbd74b135	-0.05973931
34	0x3d34689c	0.044045076
35	0x3bf31319	0.007418048
36	0xbd81e774	-0.06342974
37	0xbd8165e0	-0.06318259
38	0x3ebe8505	0.3721086
39	0x3ea37072	0.31921726
40	0xbdfa27d9	-0.122146316
41	0x3dee00ec	0.116212696
42	0xbec59d88	-0.3859675
43	0xbde81907	-0.113328986
44	0xbf432ab3	-0.7623703
45	0x3c19d728	0.009389676
46	0xbeb39da3	-0.35081205
47	0xbd5c3e9b	-0.053770643
48	0xbe32a635	-0.17446215
49	0x3d5e6e38	0.05430433
50	0xbe41d2b6	-0.18928036
51	0xbe20ba48	-0.1569606
52	0xbd56cd26	-0.05244174
53	0xbcbff500	-0.023432255
54	0xbe2acebf	-0.1668043
55	0x3e90a7a7	0.2825291
56	0xbe33c843	-0.17556863
57	0x3e30e4af	0.17274736
58	0xbda46674	-0.08027354
59	0x3d930965	0.07179526
60	0xbda989b5	-0.08278219
61	0x3db4bc86	0.088250205
62	0xbdfe5601	-0.12418748
63	0x3ec02a17	0.37532112
64	0xbf21a691	-0.63144785
65	0xbe0994eb	-0.13435714
66	0x3d2ee0a6	0.04269471
67	0xbe339ae8	-0.17539561
68	0xbdc6c88f	-0.09706222
69	0x3d6d9c4e	0.058010392
70	0xbde02d98	-0.10946196
71	0xbe850c80	-0.259861
72	0xbd48603a	-0.048919894
73	0xbdaa0cc2	-0.083032146
74	0xbd60f258	-0.054918617
75	0xbdd03c1f	-0.10167717
76	0xbd9de28e	-0.077092275
77	0xbdc44392	-0.095832005
78	0x3b234a40	0.0024916083
79	0x3da27751	0.07932914
80	0x3d1a25b9	0.03763363
81	0xbd9d692b	-0.07686075
82	0xbe46f9f5	-0.19431289
83	0xbc9353ad	-0.017984236
84	0x3eb48a88	0.3526194
85	0x3e1afbf9	0.15135182
86	0x3e72ca02	0.23709872
87	0xbdec94c4	-0.11551812
88	0xbc44c398	-0.012009524
89	0xbe38cb66	-0.1804634
90	0xbe108244	-0.14112192
91	0xbd62079e	-0.055183046
92	0x3d1e1fc6	0.03860452
93	0x3ea1e844	0.31622517
94	0xbe3427c8	-0.175933
95	0xbd27e144	-0.040986314
96	0x3d827fcd	0.06372032
97	0x3caded23	0.02123124
98	0x3dfac671	0.12244881
99	0xbccabd0a	-0.024748344
100	0xbd9dee85	-0.077115096
101	0xbd4eb3bd	-0.05046438
102	0x3d3c5974	0.045983747
103	0xbd21c90e	-0.03949838
104	0x3d287550	0.041127503
105	0x3d299b16	0.041407667
106	0x3f1c6be8	0.6110215
107	0x3dffd30d	0.124914266
108	0xbd7b89f8	-0.061410874
109	0xbeb95ac6	-0.36202067
110	0xbea30b30	-0.31844473
111	0x3dabfa7b	0.08397385
112	0x3e2e458c	0.17018718
113	0xbec57a41	-0.38569835
114	0xbdacab93	-0.08431163
115	0xbe500626	-0.20314845
116	0x3d452433	0.048130225
117	0xbeae2823	-0.34014997
118	0xbf0504e2	-0.51960576
119	0x3da6e2b1	0.08148707
120	0xbda167b9	-0.07881112
121	0xbd18b099	-0.03727779
122	0x3f4da8ed	0.80335885
123	0x3e240d85	0.16020782
124	0x3d355fc6	0.04428079
125	0x3cfe1761	0.031017007
126	0xbd828966	-0.06373863
127	0xbe94e670	-0.2908206
128	0xbb61b02b	-0.003443728
129	0xbd4adae2	-0.04952515
130	0xbd8a9c3a	-0.06768079
131	0x3d14c226	0.036317967
132	0xbda11891	-0.07866014
133	0xbd9cef4d	-0.076628305
134	0x3db25b1d	0.08708785
135	0x3c2cf3d0	0.010556176
136	0x3ccb3661	0.024806203
137	0xbda18a0c	-0.078876585
138	0xbde1ef78	-0.11032003
139	0x3d59e764	0.053199187
140	0x3d1f8c15	0.038951952
141	0x3d4b7ef1	0.049681608
142	0xbd458c34	-0.04822941
143	0x3cdb5d55	0.026777903
144	0xbcb21f31	-0.021743389
145	0xbd885394	-0.06656566
146	0xbd9fe7ab	-0.07807859
147	0x3d0ba605	0.034093875
148	0x3ad2ea87	0.0016091623
149	0x3d2d1f27	0.042266037
150	0x3c7b9897	0.0153562045
151	0x3ce77ff6	0.028259259
152	0xbc94246e	-0.018083777
153	0x3d37515e	0.044755332
154	0xbd386079	-0.04501388
155	0xbd2fc1c3	-0.042909395
156	0xbd6e5a1c	-0.058191404
157	0x3d442254	0.0478843
158	0x3d6ab724	0.057303563
159	0x3cf0c9d9	0.029393123
160	0x3cdb2f46	0.02675594
161	0x3b49116a	0.0030680546
162	0xbd366a78	-0.04453513
163	0xbc111880	-0.008855939
164	0xbbeca647	-0.0072219702
165	0xbc898d2d	-0.01679095
166	0x3d60d104	0.054886833
167	0xbdbbe7a9	-0.09175045
168	0xbd8d63d4	-0.06903806
169	0xbc8fd82a	-0.01755913
170	0xbd3e70c6	-0.046494268
171	0xbdba614e	-0.09100591
172	0xbd8031e4	-0.06259516
173	0x3c2154c8	0.009846874
174	0xbdc82393	-0.0977241
175	0x3d329752	0.04360134
176	0x3d225b32	0.039637752
177	0x3c69f31e	0.014279155
178	0xbbd5fe61	-0.0065305685
179	0x3d1637d5	0.03667434
180	0x3d9a744e	0.075417146
181	0xbd844bd0	-0.064597726
182	0xbd84253f	-0.06452417
183	0x3cec8254	0.028870739
184	0x3ba5e675	0.005062873
185	0xbcb28800	-0.021793365
186	0xbcaad174	-0.020851828
187	0xbbdf0710	-0.006806262
188	0x3c930bed	0.017950023
189	0x3d5495f5	0.051900823
190	0x38cc2fe9	9.736402e-05
191	0xbd9c9b95	-0.076468624
192	0xbc93b26b	-0.018029412
193	0xbdabeeaf	-0.08395135
194	0xbca22f10	-0.019797832
195	0xbd2d1867	-0.0422596
196	0x3d91b03b	0.071136914
197	0x3d9a58e3	0.07536485
198	0x3d2e8969	0.042611513
199	0x3c949b34	0.018140413
200	0xbdc85411	-0.097816594
201	0xba01eaa3	-0.0004955923
202	0xbd73c57b	-0.059514504
203	0x3d4fd260	0.05073774
204	0xbd8f9933	-0.07011642
205	0xbd0cfd83	-0.034421455
206	0x3d47f2eb	0.04881565
207	0x3c8e3d24	0.017363138
208	0xbd8d354a	-0.0689493
209	0xbd4202f5	-0.0473661
210	0x3d247f2f	0.040160354
211	0xbdc009da	-0.09376879
212	0xbd87646c	-0.06610951
213	0xbd2d32e9	-0.04228488
214	0x3cd22751	0.025653513
215	0x3d5a5a59	0.05330882
216	0x3c959e8e	0.018264081
217	0x3c31f0bf	0.010860621
218	0xbdb69fd4	-0.089172035
219	0x3d6008fa	0.05469606
220	0xbd7add03	-0.06124593
221	0x3c1502d1	0.00909491
222	0xbda0deba	-0.07854982
223	0x3c838024	0.016052313
224	0xbbeb066c	-0.0071723964
225	0xbdeb67bf	-0.11494397
226	0xbd077dd4	-0.033078983
227	0x3d83cef2	0.06435956
228	0xbd9d5a1b	-0.07683202
229	0x3d5fe7ac	0.0546643
230	0xbdb19ad4	-0.08672109
231	0xbd868c41	-0.0656972
232	0xbc60a800	-0.013711929
233	0xbd9fc2f2	-0.07800855
234	0xbc665cdf	-0.014060228
235	0xbd34be9f	-0.044127103
236	0xbd0ad784	-0.033896938
237	0x3cddd394	0.027078427
238	0xbd8c1fe5	-0.06842021
239	0xbd9901fc	-0.074710816
240	0xbd29ca11	-0.04145247
241	0x3cfb23cd	0.03065672
242	0x3d1985d5	0.037481148
243	0xbcc2dc6f	-0.023786752
244	0x3d17ee46	0.03709247
245	0xbc9c3bb2	-0.019071434
246	0x3d45f314	0.04832752
247	0xbd0a25a1	-0.033727292
248	0xbcf11fd8	-0.02943413
249	0xbda45310	-0.080236554
250	0xbc105610	-0.008809581
251	0x3c91c4d1	0.017794045
252	0xbdafc809	-0.085830756
253	0xbd987bda	-0.07445498
254	0x3cc534d8	0.02407305
255	0xbbfe7fd2	-0.007766702

fc2.bias f4 [128]
0	0xbeab6850	-0.33478022
1	0xbdefe7cc	-0.117141336
2	0xbdb67f33	-0.0891098
3	0xbeb877ab	-0.360288
4	0xbe93bfa8	-0.2885716
5	0xbd236e63	-0.039900195
6	0xbe5e7637	-0.21724783
7	0xbe50c273	-0.20386676
8	0x3d32cc8c	0.043652102
9	0xbdc7f01c	-0.09762594
10	0xbedbdc08	-0.42941308
11	0x3e0da981	0.13834192
12	0xbedba996	-0.4290282
13	0xbe2fdcf7	-0.17174135
14	0xbdca3436	-0.0987324
15	0xbe131995	-0.14365228
16	0xbe262781	-0.16226007
17	0xbe86a387	-0.26296636
18	0xbd953f86	-0.07287507
19	0xbebec811	-0.37262014
20	0xbe893b66	-0.2680313
21	0xbe4a0d61	-0.19731666
22	0xbeb56db3	-0.35435256
23	0xbeb273da	-0.34854013
24	0xbe991c82	-0.29904562
25	0xbe3ce18b	-0.18445413
26	0xbe988b9b	-0.2979401
27	0xbe8b9bc9	-0.27267292
28	0xbe85d9e5	-0.26142803
29	0xbe236748	-0.15957367
30	0xbebd82e9	-0.3701394
31	0xbe0ed1eb	-0.13947265
32	0xbe84de54	-0.25950873
33	0xbe440d1e	-0.19145629
34	0xbe14b9e7	-0.14524041
35	0xbe08c06e	-0.13354656
36	0xbe05528b	-0.13019769
37	0xbda52f40	-0.08065653
38	0xbe9adf4b	-0.30248484
39	0xbdef8c18	-0.11696643
40	0xbec2852d	-0.3799223
41	0xbd8fe027	-0.070251755
42	0xbe2c025f	-0.1679778
43	0xbe380241	-0.1796961
44	0xbd9b1c2b	-0.07573732
45	0xbe11a994	-0.14224845
46	0xbded6259	-0.11591024
47	0xbe2af57d	-0.16695209
48	0xbe7eeb59	-0.24894466
49	0xbd4e1c47	-0.050319936
50	0xbe00baa1	-0.12571193
51	0xbdfd5163	-0.12369039
52	0xbdc34b51	-0.0953585
53	0xbe402959	-0.18765773
54	0xbe22681a	-0.15860024
55	0xbe79e3f4	-0.24403363
56	0xbe2172dc	-0.15766472
57	0xbdb5fb4d	-0.088858224
58	0xbe112fec	-0.14178437
59	0xbdf4d4dc	-0.11954662
60	0xbef45dd5	-0.47727838
61	0xbe683fe2	-0.2268062
62	0xbe5a4dc9	-0.21318735
63	0xbe451192	-0.19244984
64	0xbdd3c5f6	-0.103404924
65	0xbc9f555e	-0.019449886
66	0xbe7a5b98	-0.24449003
67	0xbe6af6c7	-0.229457
68	0xbf14d45c	-0.58136535
69	0xbe997dd1	-0.29978803
70	0xbd953ce8	-0.072870076
71	0xbe0129d3	-0.12613611
72	0xbe808c77	-0.25107166
73	0xbed5ecf8	-0.41782355
74	0xbdcc1f00	-0.0996685
75	0x3d349fb2	0.04409761
76	0xbe84b230	-0.25917196
77	0xbe10367b	-0.14083283
78	0xbdf0f8e0	-0.11766219
79	0xbe98d1ae	-0.29847473
80	0xbe99a45c	-0.3000821
81	0xbdab0f5e	-0.083525404
82	0xbe8e5ae5	-0.27803722
83	0xbe2d7f8f	-0.16943191
84	0xbe42a4c9	-0.19008173
85	0xbea0b9ae	-0.31391662
86	0xbe922772	-0.2854572
87	0xbe880964	-0.26569664
88	0xbea320f0	-0.31861067
89	0xbe2f7d7f	-0.17137717
90	0xbe5907b7	-0.21194349
91	0xbe532bbf	-0.20622157
92	0xbe86c4c2	-0.2632199
93	0xbe50d7db	-0.20394842
94	0xbe7342e3	-0.23755984
95	0xbe7243c6	-0.23658666
96	0xbe6e64ec	-0.23280686
97	0xbe924c61	-0.28573897
98	0xbde9ae8c	-0.11410245
99	0xbda253ee	-0.079261646
100	0xbe2c9a6f	-0.16855787
101	0xbe1d03ad	-0.15333433
102	0xbe0c5242	-0.13703254
103	0xbea1c268	-0.31593633
104	0xbdf7519d	-0.120761134
105	0xbf117693	-0.56821555
106	0xbe30ece9	-0.17277874
107	0xbdb1ab38	-0.086752355
108	0xbe33892a	-0.17532793
109	0xbe5192c1	-0.20466138
110	0xbef1dc4d	-0.4723839
111	0xbea80d60	-0.32822704
112	0xbdc67d93	-0.0969192
113	0xbf2c1960	-0.6722622
114	0xbe4ad154	-0.19806415
115	0xbdae9f74	-0.08526507
116	0xbe81d401	-0.2535706
117	0xbe9d40a4	-0.3071338
118	0xbda08610	-0.078380704
119	0xbe9bd4b9	-0.30435732
120	0xbedb0d9e	-0.42783827
121	0xbe59f2c6	-0.21284017
122	0xbea66f16	-0.32506627
123	0xbe03aa6f	-0.12857984
124	0xbeac6481	-0.33670428
125	0xbe2dceb2	-0.16973379
126	0xbe9701a1	-0.2949343
127	0xbe719ee9	-0.23595776

fc3.weight f4 [8, 128]
0	0x3e601307	0.21882258
1	0x3d8db83d	0.06919906
2	0xbc8bda06	-0.017071735
3	0x3d1732a2	0.03691352
4	0x3c974e2e	0.018469896
5	0x3ec022d0	0.3752656
6	0x3c097b3a	0.008391196
7	0xbd5368fd	-0.051613797
8	0xbf8195ec	-1.0123878
9	0x3ca00e9c	0.019538216
10	0x3de0b142	0.10971309
11	0xbea09096	-0.3136031
12	0xbc745e94	-0.014915127
13	0x3dd7050a	0.10499008
14	0x3e8d9671	0.2765384
15	0xbced72ef	-0.028985469
16	0xbe0c6643	-0.13710885
17	0xbdc51be2	-0.09624459
18	0x3cb78c74	0.02240584
19	0x3e27ec21	0.1639867
20	0x3e05205a	0.13000622
21	0x3e59c1f5	0.21265395
22	0x3c3be05b	0.011467065
23	0x3e3e3648	0.18575394
24	0x3e335974	0.17514592
25	0x3e69a752	0.22817734
26	0x3e3be7c5	0.18350132
27	0xbd6a21a6	-0.057160996
28	0x3e733664	0.23751217
29	0xbd8f79b1	-0.07005633
30	0xbd933544	-0.07187894
31	0x3d4eb1bb	0.050462466
32	0x3d92b10f	0.071626775
33	0xbd1a4174	-0.037660077
34	0x3e801ddd	0.25022784
35	0xbd867c6e	-0.06566702
36	0xbe6689cd	-0.22513504
37	0x3d87acb4	0.066247374
38	0x3c934c08	0.01798059
39	0x3d962e7e	0.073330864
40	0x3f3e12e4	0.74247575
41	0xbc8383e8	-0.016054109
42	0x3dbcb9cd	0.09215126
43	0x3e55e937	0.20889746
44	0x3ef61911	0.48066
45	0x3dbc7169	0.09201319
46	0x3d74eab1	0.05979413
47	0xbdb1f387	-0.08689027
48	0x3e4d8616	0.20070681
49	0x3efed85a	0.49774438
50	0x3dfbac73	0.122887515
51	0x3d5fad78	0.054608792
52	0x3f369477	0.7132029
53	0x3d35d2bf	0.044390436
54	0xbd3b1be2	-0.045680888
55	0xbe66aa80	-0.22525978
56	0x3ea3830b	0.31935915
57	0xbdebd725	-0.11515645
58	0xbe7f2d8e	-0.24919721
59	0x3dd7b591	0.10532678
60	0xbf2fb53b	-0.6863591
61	0x3c05e3a8	0.008171953
62	0x3dc9b647	0.0984922
63	0x3d6f9ac0	0.05849719
64	0x3e636e30	0.22210002
65	0x3e7907c7	0.24319373
66	0x3dbc1643	0.091839336
67	0x3d1f9b6b	0.038966578
68	0x3e1d6b14	0.15372878
69	0xbe380a80	-0.17972755
70	0xbd637526	-0.055531643
71	0xbb41c457	-0.002956649
72	0xbe4f32f1	-0.20234276
73	0xbf273168	-0.6530976
74	0x3dc09971	0.094042666
75	0x3ed61db5	0.4181954
76	0x3e6d0b83	0.23148923
77	0xbe0ffbab	-0.14060847
78	0x3d5b8729	0.053595696
79	0xbea3e0e9	-0.3200753
80	0x3e497202	0.19672397
81	0x3cdd6ffa	0.027030934
82	0xbe0b5484	-0.13606459
83	0x3ce3edec	0.02782341
84	0xbe25e8e4	-0.16202122
85	0xbeb5bbdf	-0.35494897
86	0x3e9822b9	0.2971399
87	0x3e9fffca	0.3124984
88	0x3e3171a4	0.17328507
89	0x3e8476c5	0.25871864
90	0xbcfc80e6	-0.030823182
91	0x3d8d95fe	0.06913374
92	0x3f048b37	0.51774925
93	0xbc7f8189	-0.015594848
94	0xbdc5030e	-0.09619723
95	0xbda7c83b	-0.08192488
96	0x3d5bf6dc	0.05370222
97	0x3e1e951a	0.15486565
98	0xbd81de35	-0.06341211
99	0xbbf3e3f3	-0.007442945
100	0xbc68ede7	-0.014216877
101	0x3e065f58	0.13122308
102	0xbd88c026	-0.066772744
103	0x3d45695a	0.048196174
104	0x3ece9b17	0.403527
105	0x3e3e7ae6	0.1860157
106	0x3d427b6a	0.047480978
107	0x3c9a2340	0.018815637
108	0xbd29bb9c	-0.041438684
109	0x3ebbde6d	0.36693135
110	0x3d695191	0.056962553
111	0x3e84b794	0.2592131
112	0xbced5bc4	-0.028974421
113	0x3d29bd26	0.04144015
114	0x3e2ebe9c	0.17064899
115	0x3e58d7b0	0.21176028
116	0xbc6d4609	-0.01448203
117	0x3e0aa9c6	0.13541326
118	0xbd381752	-0.044944115
119	0x3de06970	0.109576106
120	0x3ea52a98	0.3225906
121	0xbcd17283	-0.025567299
122	0x3d0849b1	0.033273403
123	0xbdc8815d	-0.09790299
124	0xbc13dff7	-0.009025565
125	0x3e781f79	0.24230756
126	0x3d981544	0.07425931
127	0xbd011678	-0.03151557
128	0x3d98e82d	0.07466159
129	0x3d004270	0.03131336
130	0xbd8fa0fe	-0.07013129
131	0xbeb8e045	-0.36108604
132	0x3e20fc38	0.15721214
133	0x3f52428e	0.82132804
134	0x3d824e42	0.06362583
135	0x3ab63fe3	0.0013904538
136	0x3f37099b	0.7149903
137	0xbd8834bf	-0.066506855
138	0x3dcadb65	0.099051274
139	0x3d3d81c1	0.04626632
140	0x3e936b71	0.2879291
141	0x3e3faad8	0.18717515
142	0x3e6a8fe9	0.2290646
143	0x3c9b55e0	0.018961847
144	0x3dd7fbfc	0.10546109
145	0xbd102762	-0.03519381
146	0x3d25fa46	0.040521882
147	0xbd4e3e13	-0.050352167
148	0xbe1f7d60	-0.1557517
149	0x3df510af	0.11966073
150	0xbdf0a27a	-0.1174974
151	0xbf2a3e71	-0.6650153
152	0x3e356910	0.1771586
153	0x3e3c127f	0.1836643
154	0xbd444ba1	-0.047923688
155	0x3ecf9cc0	0.40549278
156	0xbed4a13f	-0.4152927
157	0x3da9079b	0.08253404
158	0xbcca5916	-0.024700683
159	0x3dd3c727	0.1034072
160	0xbd1df552	-0.038564034
161	0xbe02056a	-0.12697378
162	0x3ea12c20	0.31478977
163	0xbdd435c0	-0.103618145
164	0x3e48ea85	0.19620712
165	0xbe14fdf4	-0.1455
166	0xbe3eb66e	-0.18624279
167	0x3c493d6a	0.012282709
168	0x3e0334ac	0.12813061
169	0xbdbb6ca6	-0.091515824
170	0xbd27035f	-0.0407747
171	0x3dce9d75	0.10088626
172	0x3e352130	0.17688441
173	0xbe5145d6	-0.20436797
174	0xbe2b3e4e	-0.16722986
175	0x3ce09a14	0.02741722
176	0x3d4863f2	0.04892344
177	0x3f77b782	0.96764386
178	0x3d02f2a0	0.031969666
179	0xbcb35e7e	-0.021895643
180	0x3e7caa3a	0.24674311
181	0x3de65b3e	0.11247872
182	0x3e5df301	0.2167473
183	0x3dd48cd4	0.10378423
184	0x3e286af6	0.16447052
185	0x3c23d6e5	0.009999965
186	0x3e16ed52	0.14738968
187	0x3e4bb6c3	0.19893937
188	0xbf848f5a	-1.0356247
189	0x3d647f79	0.05578563
190	0xbe502ce5	-0.20329626
191	0xbd03567b	-0.032064896
192	0x3ef78ba1	0.48348716
193	0x3f00a062	0.50244725
194	0xbe556038	-0.20837486
195	0x3e812ba6	0.25228614
196	0xbf18cc42	-0.5968667
197	0x3e0a6e9b	0.13518755
198	0xbbe62bab	-0.0070242486
199	0xbf7adca9	-0.9799295
200	0xbd72dd09	-0.059292827
201	0xbf182193	-0.5942623
202	0x3c251725	0.010076319
203	0x3e1012bd	0.14069648
204	0x3e822fee	0.25427192
205	0x3d92eaa2	0.07173659
206	0x3d38077a	0.044929005
207	0x3e8cef48	0.27526307
208	0x3e07455f	0.13210057
209	0x3ce461c8	0.027878657
210	0xbe004c3a	-0.12529078
211	0xbeda84e1	-0.42679504
212	0x3d07dbf3	0.033168744
213	0x3eb30c28	0.34970212
214	0xbd78fbed	-0.06078713
215	0x3f062f57	0.52415985
216	0xbe057962	-0.13034585
217	0x3d51ad5a	0.05119071
218	0xbc8e168a	-0.017344732
219	0x3d18fd50	0.037350953
220	0x3e4b38ba	0.19845858
221	0xbce963ec	-0.02849003
222	0x3df4493b	0.1192803
223	0xbded47de	-0.11585973
224	0x3e40eaed	0.18839617
225	0xbdad561a	-0.08463688
226	0x3c5b0e54	0.013370115
227	0x3af2fc80	0.0018538386
228	0x3f8008a2	1.0002635
229	0x3e161ab2	0.14658621
230	0xbd978f08	-0.07400328
231	0x3e436137	0.19080053
232	0xbf5789c8	-0.8419461
233	0x3e404fed	0.1878049
234	0xbe810504	-0.2519914
235	0x3cc4cec9	0.024024384
236	0xbd472816	-0.048622213
237	0x3decebc9	0.1156841
238	0xbe509ea8	-0.20373023
239	0xbf7d93b5	-0.9905351
240	0x3a5f7b80	0.0008525178
241	0xbec2e042	-0.3806172
242	0xbd36abb1	-0.04459733
243	0x3e94d6c1	0.29070094
244	0x3e47980c	0.19491595
245	0x3e80e4c0	0.25174522
246	0x3b7e8f12	0.00388426
247	0x3ef2e93d	0.47443572
248	0x3d28cb45	0.041209478
249	0x3e496a1e	0.19669387
250	0xbe42fb1d	-0.19041105
251	0x3d051ec5	0.032500047
252	0x3e5b8569	0.2143761
253	0x3e2d2124	0.16907173
254	0x3e15ff90	0.1464827
255	0x3e227726	0.15865764

fc3.bias f4 [8]
0	0x3f53e4c1	0.82770926
1	0x3f465355	0.77470905
2	0x3f2f07eb	0.68371457
3	0x3f3640f9	0.7119289
4	0x3f5b885b	0.85754937
5	0x3f35f333	0.7107422
6	0x3f5ce599	0.8628784
7	0x3f43c3f4	0.76470876

fc1.weight f4 [128, 15]
0	0xbe1a6b31	-0.15079953
1	0x3e81b2fe	0.25331873
2	0xbe29d90d	-0.16586705
3	0xbe4eaa99	-0.20182265
4	0xbe08161e	-0.13289687
5	0x3e4c24de	0.19935939
6	0x3c8fa40a	0.017534275
7	0xbe6e6cf6	-0.23283753
8	0xbe7aee96	-0.24505076
9	0x3d76614a	0.060151376
10	0xbe5139f2	-0.2043226
11	0xbdf8fabc	-0.12157199
12	0xbc47882c	-0.012178462
13	0xbde0a612	-0.109691754
14	0xbe840d4e	-0.257914
15	0xbe512871	-0.20425583
16	0xbc970313	-0.018434083
17	0xbe296a95	-0.16544564
18	0xbec36b74	-0.38167918
19	0x3d40c657	0.04706415
20	0x3dde685c	0.10859749
21	0x3e007620	0.12545061
22	0xbeab1d5c	-0.33420837
23	0x3a6d7dc8	0.00090595754
24	0xbe22681d	-0.15860029
25	0x3eaa33fe	0.33242792
26	0x3e659125	0.2241865
27	0xbeaf0310	-0.34182024
28	0x3d40450e	0.046940856
29	0xbe683a52	-0.22678497
30	0x3c4e0332	0.012574004
31	0xbd1e720c	-0.038682982
32	0xbec1c9ca	-0.37849265
33	0x3e500672	0.20314959
34	0x3e468053	0.1938489
35	0x3e904325	0.28176227
36	0xbe357329	-0.17719711
37	0xbe2470b7	-0.16058622
38	0xbe23c987	-0.15994845
39	0xbdd3db88	-0.10344607
40	0x3e8ba3e2	0.2727347
41	0xbd93fdca	-0.07226141
42	0x3ca599cb	0.020214936
43	0x3b313303	0.0027038462
44	0xbec2f57d	-0.38077918
45	0xbdf9d84e	-0.1219946
46	0x3e83beea	0.25731593
47	0xbee0c7ca	-0.43902427
48	0xbcdf8739	-0.027286159
49	0xbe8ac939	-0.27106646
50	0xbb278b44	-0.0025565187
51	0xbe9d6579	-0.3074148
52	0xbea3a91a	-0.31964952
53	0xbee49ada	-0.44649392
54	0x3ec5c91b	0.38629994
55	0x3eb26e99	0.34850004
56	0xbdf484c4	-0.119393855
57	0xbecbad0c	-0.39780462
58	0xbe3c8552	-0.18410233
59	0xbe3c3958	-0.1838125
60	0xbe030af9	-0.12797154
61	0x3ec019c9	0.37519673
62	0x3e02c6f4	0.12771207
63	0x3d6b7844	0.05748774
64	0x3d0f0a48	0.034921914
65	0xbe97f965	-0.2968246
66	0xbdfcda06	-0.12346272
67	0x3da870b9	0.08224625
68	0xbeaa3908	-0.33246636
69	0x3d7f2e52	0.062300034
70	0x3e7a4b0a	0.24442688
71	0x3e953e11	0.29148915
72	0xbba7b2c7	-0.0051177475
73	0xbe71e706	-0.23623285
74	0xbebbe25c	-0.36696136
75	0xbecf3cc4	-0.40476048
76	0xbeee80dc	-0.46582687
77	0x3f2ee5af	0.6831922
78	0xbc6354cd	-0.013875199
79	0xbf04b8b1	-0.51844317
80	0x3cefec0b	0.029287359
81	0xbe7702e1	-0.24122192
82	0xbf3aa1ea	-0.7290331
83	0xbd3bb63e	-0.045828097
84	0xbe49817e	-0.19678304
85	0x3e23ae88	0.15984547
86	0x3ef52a7b	0.47883973
87	0xbe0d0b6b	-0.13773887
88	0x3c0c6a03	0.008570197
89	0xbe28805e	-0.16455218
90	0x3c92e760	0.017932594
91	0xbe2bc626	-0.16774806
92	0x3ccf7670	0.02532503
93	0xbe3492c4	-0.17634112
94	0x3e5f0a0a	0.21781173
95	0xbe624f96	-0.22100672
96	0xbe21c85e	-0.1579909
97	0xbe87e581	-0.26542285
98	0xbd83fbe4	-0.06444529
99	0x3dc7394c	0.097277254
100	0xbe64fdf0	-0.22362494
101	0x3d913d3c	0.07091758
102	0xbe7e06aa	-0.2480723
103	0x3d2d90e2	0.0423745
104	0x3d9aa340	0.07550669
105	0xbf2fe525	-0.6870902
106	0xbe05c430	-0.13063121
107	0xbf3e6af0	-0.74381924
108	0x3f368848	0.713017
109	0xbf1c7366	-0.61113584
110	0xbf253d73	-0.6454689
111	0xbf1743df	-0.5908794
112	0x3e880f7c	0.26574314
113	0xbf774af5	-0.9659875
114	0x3d8d1820	0.06889367
115	0xbd2aab0f	-0.04166704
116	0xbf01f160	-0.50758934
117	0xbe9c5e31	-0.30540612
118	0x3ee7de6e	0.45286888
119	0xbf18b76c	-0.5965488
120	0xbe17caef	-0.14823507
121	0xbce1ca4f	-0.027562289
122	0x3e78630a	0.2425653
123	0xbe535c31	-0.20640637
124	0xbe9e6fb0	-0.30944586
125	0x3d8be4ec	0.06830773
126	0xbe3c4079	-0.1838397
127	0xbd8df657	-0.06931751
128	0xbec90611	-0.3926244
129	0xbecb1f5d	-0.39672366
130	0xbe599698	-0.21248853
131	0xbdbfd6dc	-0.09367153
132	0xbea56160	-0.32300854
133	0x3e0c6233	0.13709335
134	0xbdcd8320	-0.10034776
135	0xbe21627e	-0.15760228
136	0xbed424bf	-0.41434285
137	0xbed41c73	-0.41427955
138	0xbe812e0f	-0.25230452
139	0xbe971935	-0.2951142
140	0x3b66d8d2	0.003522445
141	0x3eaaa266	0.33327025
142	0xbcb7470c	-0.022372745
143	0xbdd02251	-0.10162795
144	0x3df0cee4	0.11758211
145	0x3dd7ffa0	0.105468035
146	0xbe787a94	-0.2426551
147	0xbeaaec4a	-0.333834
148	0x3e5925e2	0.21205857
149	0xbe952042	-0.29126173
150	0x3db0b7bd	0.08628795
151	0xbe94886c	-0.29010332
152	0x3e2c9d80	0.16856956
153	0xbea0794c	-0.31342542
154	0xbe216cc0	-0.15764141
155	0x3e5685ac	0.2094943
156	0xbe59def9	-0.21276464
157	0xbeac4c7a	-0.33652097
158	0xbebbb87e	-0.36664194
159	0xbdc2f049	-0.09518487
160	0xbd4d2b1c	-0.05008994
161	0x3ea8d2fd	0.3297347
162	0xbcb41908	-0.021984592
163	0xbd72f42b	-0.059314888
164	0xbeb3c7f9	-0.35113505
165	0xbe62d618	-0.22151983
166	0xbcf035d2	-0.029322539
167	0xbcff92a7	-0.031197859
168	0xbf258f77	-0.64672035
169	0xbf2e0d73	-0.6798927
170	0x3d7c43d9	0.061588142
171	0xbf2043c8	-0.62603426
172	0x3ba487ed	0.0050210864
173	0xbf4a7353	-0.7908222
174	0xbdccc45f	-0.09998392
175	0x3c8a0490	0.016847879
176	0x3f156b0f	0.58366483
177	0xbed5b465	-0.41739193
178	0xbe99fcd2	-0.300757
179	0xbf56a069	-0.83838516
180	0x3d056474	0.032566503
181	0x3e66b21c	0.22528881
182	0x3f19e903	0.6012117
183	0xbeeb2e08	-0.45933557
184	0xbe83708c	-0.25671804
185	0xbe574c43	-0.21025185
186	0xbe7a0e87	-0.24419604
187	0x3dbaf1d9	0.0912816
188	0xbeb21bbd	-0.34786788
189	0x3ed71be3	0.42013463
190	0xbe6ad70a	-0.22933593
191	0x3d012a6a	0.03153459
192	0xbf2a9f83	-0.66649646
193	0xbedb3074	-0.42810404
194	0xbdd8c67d	-0.10584734
195	0xbe424e3a	-0.18975154
196	0x3f044001	0.5166016
197	0xbd83e36a	-0.0643986
198	0xbdcca3d1	-0.09992183
199	0x3cce3343	0.025170928
200	0xbe000b7c	-0.12504381
201	0x3d8ce74e	0.06880055
202	0xbed3842b	-0.41311774
203	0xbcdaee43	-0.02672494
204	0xbdb2ae42	-0.08724643
205	0x3bf86ff3	0.0075817048
206	0x3e81cbc0	0.2535076
207	0xbec5a067	-0.3859894
208	0xbe92f29a	-0.28700715
209	0xbebfe7b8	-0.37481475
210	0x3dfeb977	0.12437718
211	0x3d2a86a2	0.041632302
212	0x3df7d669	0.12101442
213	0xbedb7d61	-0.42869094
214	0xbf0af785	-0.54283935
215	0xbea1464c	-0.31498945
216	0x3d74b2ed	0.05974095
217	0x3d9ef5ef	0.07761752
218	0xbf18d259	-0.59695965
219	0xbe4039ee	-0.18772098
220	0x3e1e7f0e	0.15478155
221	0x3e704ac7	0.23466025
222	0xbeaa0f9f	-0.33215043
223	0xbe924583	-0.28568658
224	0xbea44454	-0.3208338
225	0x3bfa17d0	0.007632233
226	0x3e2851a4	0.16437393
227	0xbe8c3d0b	-0.27390322
228	0x3ca0a868	0.019611552
229	0xbe11bcd4	-0.14232188
230	0xbdcdd589	-0.10050494
231	0xbef6cd31	-0.48203424
232	0xbe7e9afa	-0.24863806
233	0xbe467080	-0.19378853
234	0xbe8b77a4	-0.27239716
235	0x3e8b1a8c	0.2716869
236	0xbee33ab8	-0.44380736
237	0xbe229766	-0.15878066
238	0x3d6ec8ee	0.05829709
239	0xbec69052	-0.38781983
240	0xbddd14c1	-0.10794974
241	0xbcfb5b84	-0.030683286
242	0x3e23b7cc	0.15988082
243	0xbda50a7a	-0.08058639
244	0xbe17dff8	-0.14831531
245	0x3e576530	0.21034694
246	0x3e3b8c5e	0.18315265
247	0xbe1c1e24	-0.15245873
248	0xbe8ebc3b	-0.27877983
249	0xbdcdec9a	-0.10054894
250	0x3c814500	0.015779972
251	0xbe3b2914	-0.18277389
252	0xbe119e06	-0.14220437
253	0xbe90df8d	-0.28295556
254	0x3dad8f50	0.084746
255	0x3e4764ce	0.19472048

fc1.bias f4 [128]
0	0x3dc29252	0.09500565
1	0xbeecd099	-0.46252897
2	0xbeb5dff2	-0.3552242
3	0xbc87dced	-0.016584838
4	0xbe8449ea	-0.25837642
5	0xbe6083b5	-0.21925242
6	0xbe4b4672	-0.19851092
7	0xbe0f5e02	-0.14000705
8	0xba9f0f05	-0.0012135213
9	0xbe42aa4c	-0.19010276
10	0xbda3f685	-0.08006004
11	0xbdf4eb65	-0.119589604
12	0xbf14399e	-0.57900417
13	0xbd683340	-0.0566895
14	0xbe74b132	-0.2389572
15	0xbc5d5d75	-0.013511051
16	0xbce719ba	-0.02821051
17	0xbdb89397	-0.090125255
18	0xbeaca975	-0.33723035
19	0xbe1c4697	-0.15261303
20	0xbe902621	-0.2815409
21	0xbdb9ef7a	-0.0907888
22	0xbe40a9a7	-0.18814717
23	0xbdfee664	-0.12446287
24	0xbe9027dc	-0.2815541
25	0xbdfee27b	-0.124455415
26	0xbe6c86e1	-0.23098327
27	0xbe6b8a2d	-0.23001929
28	0xbe29f6d6	-0.16598067
29	0xbdfc9c10	-0.12334454
30	0xbe3e5268	-0.18586123
31	0xbf275e4a	-0.6537825
32	0xbe8b7b11	-0.2724233
33	0xbea6e3ea	-0.3259576
34	0xbe8cbc47	-0.27487394
35	0xbbddb31f	-0.0067657377
36	0xbed10f82	-0.40832144
37	0xbeb5aab3	-0.35481796
38	0xbe7faea8	-0.2496897
39	0xbec19ca3	-0.37814817
40	0xbecc0088	-0.39844155
41	0xbe9f6181	-0.31129077
42	0xbe42740d	-0.18989582
43	0xbe1a0133	-0.1503952
44	0x3dc7cd61	0.0975597
45	0xbe83aea2	-0.25719172
46	0xbe489787	-0.19589053
47	0xbe6c6c62	-0.2308822
48	0xbebffea9	-0.37498978
49	0x3bf76438	0.007549789
50	0xbe5e191c	-0.21689266
51	0xbea6d089	-0.32580975
52	0xbeaaa5ee	-0.3332972
53	0xbe91dc29	-0.2848828
54	0xbf0095cf	-0.5022859
55	0xbeb41bc3	-0.3517743
56	0xbe394c0e	-0.18095419
57	0xbe9a75a1	-0.3016787
58	0xbeb943ab	-0.3618444
59	0x3dafbcc4	0.08580926
60	0xbdef392d	-0.11680827
61	0x3c96cc08	0.018407837
62	0xbe0c45eb	-0.13698547
63	0xbecc738c	-0.39931905
64	0xbeed37e2	-0.46331698
65	0xbe6ae439	-0.22938623
66	0xbea5ed3e	-0.32407564
67	0xbe85b08b	-0.26111254
68	0xbe376604	-0.1791001
69	0xbddde82a	-0.108352974
70	0xbe6fecbf	-0.23430155
71	0xbea8bf69	-0.32958534
72	0xbe0eb68a	-0.1393682
73	0x3ddbf2a6	0.10739641
74	0xbe6edea6	-0.23327121
75	0xbde3c28f	-0.111210935
76	0xbd3a4d5b	-0.04548393
77	0xbc5b9487	-0.013402111
78	0xbe6ef1a4	-0.23334366
79	0xbcc6566b	-0.02421113
80	0xbe69d653	-0.22835664
81	0xbe27515a	-0.16339627
82	0xbe3991f8	-0.18122089
83	0x3c0d91f8	0.008640759
84	0xbf074b9c	-0.52849746
85	0xbe60c315	-0.21949418
86	0xbebea520	-0.37235355
87	0xbddfa2cb	-0.10919722
88	0xbebebc7d	-0.3725318
89	0xbe963826	-0.29339713
90	0xbe598de1	-0.21245529
91	0xbe8626b7	-0.26201412
92	0x3d96abf1	0.07357014
93	0xbe7bb503	-0.24580769
94	0xbe1e511e	-0.15460631
95	0xbe75354a	-0.2394611
96	0xbee00c8c	-0.43759573
97	0xbd6d0bd5	-0.057872612
98	0xbd150022	-0.03637708
99	0xbd7db204	-0.061937347
100	0xbddaaa0f	-0.10676967
101	0xbd90f526	-0.07078008
102	0xbe658a84	-0.22416121
103	0xbab0e000	-0.0013494492
104	0xbe869451	-0.2628503
105	0xbd8e67a9	-0.06953365
106	0xbe74e0c3	-0.23913865
107	0xbe1e8d6c	-0.15483636
108	0xbe7af9b4	-0.24509317
109	0xbea14434	-0.31497347
110	0xbe82fd56	-0.25583905
111	0xbe74c60c	-0.23903674
112	0xbdfc13aa	-0.12308438
113	0xbe9da518	-0.3079002
114	0xbe737b84	-0.23777586
115	0x3d346e05	0.044050235
116	0xbdc43d24	-0.09581974
117	0xbeacf85b	-0.3378323
118	0x3c9e4d48	0.01932396
119	0xbe90a9c4	-0.2825452
120	0xbee514d6	-0.4474246
121	0xbdd1cb43	-0.10243847
122	0xbed0f4f1	-0.40811875
123	0xbebf9d6b	-0.37424788
124	0xbee026be	-0.43779558
125	0xbe0a2aed	-0.13492937
126	0xbea01e82	-0.31273276
127	0xbe12d6cc	-0.14339751

fc2.weight f4 [128, 128]
0	0xbd79904e	-0.060928635
1	0x3e8a61bb	0.27027687
2	0xbca3afbc	-0.019981258
3	0x39c8ee35	0.0003832445
4	0x3d59cca7	0.053173687
5	0xbe9abd86	-0.3022272
6	0x3d9b4d29	0.075830765
7	0x3e70cc4b	0.23515432
8	0x3b6371a1	0.003470518
9	0xbcf6bd6f	-0.030119626
10	0xbd06e6a6	-0.032934807
11	0x3eb38f55	0.3507029
12	0xbe9d26c9	-0.30693653
13	0x3e950ba9	0.29110458
14	0x3d4a0444	0.049320474
15	0xbb3a3d6d	-0.002841796
16	0xbdec937b	-0.11551567
17	0x3e3315a9	0.17488731
18	0x3e079adf	0.13242672
19	0xbeb560e8	-0.35425496
20	0x3d9a1c85	0.07524971
21	0x3e249e2b	0.16075961
22	0xbe7117d0	-0.2354424
23	0xbe09faa0	-0.13474512
24	0xbb5f1d7f	-0.003404468
25	0xbdb055e7	-0.086101346
26	0xbd8f9158	-0.07010144
27	0xbec355b4	-0.38151324
28	0x3d7e4c02	0.062084205
29	0x3d4d0ebd	0.050062884
30	0xbe4ee2a5	-0.20203646
31	0xbf1d3508	-0.61409044
32	0x3e8541e6	0.2602684
33	0xbd74b135	-0.05973931
34	0x3d34689c	0.044045076
35	0x3bf31319	0.007418048
36	0xbd81e774	-0.06342974
37	0xbd8165e0	-0.06318259
38	0x3ebe8505	0.3721086
39	0x3ea37072	0.31921726
40	0xbdfa27d9	-0.122146316
41	0x3dee00ec	0.116212696
42	0xbec59d88	-0.3859675
43	0xbde81907	-0.113328986
44	0xbf432ab3	-0.7623703
45	0x3c19d728	0.009389676
46	0xbeb39da3	-0.35081205
47	0xbd5c3e9b	-0.053770643
48	0xbe32a635	-0.17446215
49	0x3d5e6e38	0.05430433
50	0xbe41d2b6	-0.18928036
51	0xbe20ba48	-0.1569606
52	0xbd56cd26	-0.05244174
53	0xbcbff500	-0.023432255
54	0xbe2acebf	-0.1668043
55	0x3e90a7a7	0.2825291
56	0xbe33c843	-0.17556863
57	0x3e30e4af	0.17274736
58	0xbda46674	-0.08027354
59	0x3d930965	0.07179526
60	0xbda989b5	-0.08278219
61	0x3db4bc86	0.088250205
62	0xbdfe5601	-0.12418748
63	0x3ec02a17	0.37532112
64	0xbf21a691	-0.63144785
65	0xbe0994eb	-0.13435714
66	0x3d2ee0a6	0.04269471
67	0xbe339ae8	-0.17539561
68	0xbdc6c88f	-0.09706222
69	0x3d6d9c4e	0.058010392
70	0xbde02d98	-0.10946196
71	0xbe850c80	-0.259861
72	0xbd48603a	-0.048919894
73	0xbdaa0cc2	-0.083032146
74	0xbd60f258	-0.054918617
75	0xbdd03c1f	-0.10167717
76	0xbd9de28e	-0.077092275
77	0xbdc44392	-0.095832005
78	0x3b234a40	0.0024916083
79	0x3da27751	0.07932914
80	0x3d1a25b9	0.03763363
81	0xbd9d692b	-0.07686075
82	0xbe46f9f5	-0.19431289
83	0xbc9353ad	-0.017984236
84	0x3eb48a88	0.3526194
85	0x3e1afbf9	0.15135182
86	0x3e72ca02	0.23709872
87	0xbdec94c4	-0.11551812
88	0xbc44c398	-0.012009524
89	0xbe38cb66	-0.1804634
90	0xbe108244	-0.14112192
91	0xbd62079e	-0.055183046
92	0x3d1e1fc6	0.03860452
93	0x3ea1e844	0.31622517
94	0xbe3427c8	-0.175933
95	0xbd27e144	-0.040986314
96	0x3d827fcd	0.06372032
97	0x3caded23	0.02123124
98	0x3dfac671	0.12244881
99	0xbccabd0a	-0.024748344
100	0xbd9dee85	-0.077115096
101	0xbd4eb3bd	-0.05046438
102	0x3d3c5974	0.045983747
103	0xbd21c90e	-0.03949838
104	0x3d287550	0.041127503
105	0x3d299b16	0.041407667
106	0x3f1c6be8	0.6110215
107	0x3dffd30d	0.124914266
108	0xbd7b89f8	-0.061410874
109	0xbeb95ac6	-0.36202067
110	0xbea30b30	-0.31844473
111	0x3dabfa7b	0.08397385
112	0x3e2e458c	0.17018718
113	0xbec57a41	-0.38569835
114	0xbdacab93	-0.08431163
115	0xbe500626	-0.20314845
116	0x3d452433	0.048130225
117	0xbeae2823	-0.34014997
118	0xbf0504e2	-0.51960576
119	0x3da6e2b1	0.08148707
120	0xbda167b9	-0.07881112
121	0xbd18b099	-0.03727779
122	0x3f4da8ed	0.80335885
123	0x3e240d85	0.16020782
124	0x3d355fc6	0.04428079
125	0x3cfe1761	0.031017007
126	0xbd828966	-0.06373863
127	0xbe94e670	-0.2908206
128	0xbb61b02b	-0.003443728
129	0xbd4adae2	-0.04952515
130	0xbd8a9c3a	-0.06768079
131	0x3d14c226	0.036317967
132	0xbda11891	-0.07866014
133	0xbd9cef4d	-0.076628305
134	0x3db25b1d	0.08708785
135	0x3c2cf3d0	0.010556176
136	0x3ccb3661	0.024806203
137	0xbda18a0c	-0.078876585
138	0xbde1ef78	-0.11032003
139	0x3d59e764	0.053199187
140	0x3d1f8c15	0.038951952
141	0x3d4b7ef1	0.049681608
142	0xbd458c34	-0.04822941
143	0x3cdb5d55	0.026777903
144	0xbcb21f31	-0.021743389
145	0xbd885394	-0.06656566
146	0xbd9fe7ab	-0.07807859
147	0x3d0ba605	0.034093875
148	0x3ad2ea87	0.0016091623
149	0x3d2d1f27	0.042266037
150	0x3c7b9897	0.0153562045
151	0x3ce77ff6	0.028259259
152	0xbc94246e	-0.018083777
153	0x3d37515e	0.044755332
154	0xbd386079	-0.04501388
155	0xbd2fc1c3	-0.042909395
156	0xbd6e5a1c	-0.058191404
157	0x3d442254	0.0478843
158	0x3d6ab724	0.057303563
159	0x3cf0c9d9	0.029393123
160	0x3cdb2f46	0.02675594
161	0x3b49116a	0.0030680546
162	0xbd366a78	-0.04453513
163	0xbc111880	-0.008855939
164	0xbbeca647	-0.0072219702
165	0xbc898d2d	-0.01679095
166	0x3d60d104	0.054886833
167	0xbdbbe7a9	-0.09175045
168	0xbd8d63d4	-0.06903806
169	0xbc8fd82a	-0.01755913
170	0xbd3e70c6	-0.046494268
171	0xbdba614e	-0.09100591
172	0xbd8031e4	-0.06259516
173	0x3c2154c8	0.009846874
174	0xbdc82393	-0.0977241
175	0x3d329752	0.04360134
176	0x3d225b32	0.039637752
177	0x3c69f31e	0.014279155
178	0xbbd5fe61	-0.0065305685
179	0x3d1637d5	0.03667434
180	0x3d9a744e	0.075417146
181	0xbd844bd0	-0.064597726
182	0xbd84253f	-0.06452417
183	0x3cec8254	0.028870739
184	0x3ba5e675	0.005062873
185	0xbcb28800	-0.021793365
186	0xbcaad174	-0.020851828
187	0xbbdf0710	-0.006806262
188	0x3c930bed	0.017950023
189	0x3d5495f5	0.051900823
190	0x38cc2fe9	9.736402e-05
191	0xbd9c9b95	-0.076468624
192	0xbc93b26b	-0.018029412
193	0xbdabeeaf	-0.08395135
194	0xbca22f10	-0.019797832
195	0xbd2d1867	-0.0422596
196	0x3d91b03b	0.071136914
197	0x3d9a58e3	0.07536485
198	0x3d2e8969	0.042611513
199	0x3c949b34	0.018140413
200	0xbdc85411	-0.097816594
201	0xba01eaa3	-0.0004955923
202	0xbd73c57b	-0.059514504
203	0x3d4fd260	0.05073774
204	0xbd8f9933	-0.07011642
205	0xbd0cfd83	-0.034421455
206	0x3d47f2eb	0.04881565
207	0x3c8e3d24	0.017363138
208	0xbd8d354a	-0.0689493
209	0xbd4202f5	-0.0473661
210	0x3d247f2f	0.040160354
211	0xbdc009da	-0.09376879
212	0xbd87646c	-0.06610951
213	0xbd2d32e9	-0.04228488
214	0x3cd22751	0.025653513
215	0x3d5a5a59	0.05330882
216	0x3c959e8e	0.018264081
217	0x3c31f0bf	0.010860621
218	0xbdb69fd4	-0.089172035
219	0x3d6008fa	0.05469606
220	0xbd7add03	-0.06124593
221	0x3c1502d1	0.00909491
222	0xbda0deba	-0.07854982
223	0x3c838024	0.016052313
224	0xbbeb066c	-0.0071723964
225	0xbdeb67bf	-0.11494397
226	0xbd077dd4	-0.033078983
227	0x3d83cef2	0.06435956
228	0xbd9d5a1b	-0.07683202
229	0x3d5fe7ac	0.0546643
230	0xbdb19ad4	-0.08672109
231	0xbd868c41	-0.0656972
232	0xbc60a800	-0.013711929
233	0xbd9fc2f2	-0.07800855
234	0xbc665cdf	-0.014060228
235	0xbd34be9f	-0.044127103
236	0xbd0ad784	-0.033896938
237	0x3cddd394	0.027078427
238	0xbd8c1fe5	-0.06842021
239	0xbd9901fc	-0.074710816
240	0xbd29ca11	-0.04145247
241	0x3cfb23cd	0.03065672
242	0x3d1985d5	0.037481148
243	0xbcc2dc6f	-0.023786752
244	0x3d17ee46	0.03709247
245	0xbc9c3bb2	-0.019071434
246	0x3d45f314	0.04832752
247	0xbd0a25a1	-0.033727292
248	0xbcf11fd8	-0.02943413
249	0xbda45310	-0.080236554
250	0xbc105610	-0.008809581
251	0x3c91c4d1	0.017794045
252	0xbdafc809	-0.085830756
253	0xbd987bda	-0.07445498
254	0x3cc534d8	0.02407305
255	0xbbfe7fd2	-0.007766702

fc2.bias f4 [128]
0	0xbeab6850	-0.33478022
1	0xbdefe7cc	-0.117141336
2	0xbdb67f33	-0.0891098
3	0xbeb877ab	-0.360288
4	0xbe93bfa8	-0.2885716
5	0xbd236e63	-0.039900195
6	0xbe5e7637	-0.21724783
7	0xbe50c273	-0.20386676
8	0xbce94b53	-0.0284783
9	0xbdc7f01c	-0.09762594
10	0xbedbdc08	-0.42941308
11	0x3d9d1a2a	0.07671006
12	0xbedba996	-0.4290282
13	0xbe2fdcf7	-0.17174135
14	0xbdca3436	-0.0987324
15	0xbe131995	-0.14365228
16	0xbe262781	-0.16226007
17	0xbe86a387	-0.26296636
18	0xbd953f86	-0.07287507
19	0xbebec811	-0.37262014
20	0xbe893b66	-0.2680313
21	0xbe4a0d61	-0.19731666
22	0xbeb56db3	-0.35435256
23	0xbed5b0ed	-0.41736546
24	0xbe991c82	-0.29904562
25	0xbe3ce18b	-0.18445413
26	0xbe988b9b	-0.2979401
27	0xbe8b9bc9	-0.27267292
28	0xbe85d9e5	-0.26142803
29	0xbe236748	-0.15957367
30	0xbebd82e9	-0.3701394
31	0xbe0ed1eb	-0.13947265
32	0xbe84de54	-0.25950873
33	0xbe440d1e	-0.19145629
34	0xbe14b9e7	-0.14524041
35	0xbe08c06e	-0.13354656
36	0xbe05528b	-0.13019769
37	0xbda52f40	-0.08065653
38	0xbe9adf4b	-0.30248484
39	0xbdef8c18	-0.11696643
40	0xbf119d3e	-0.5688056
41	0xbd8fe027	-0.070251755
42	0xbe2c025f	-0.1679778
43	0x3d2f9489	0.042866264
44	0xbd9b1c2b	-0.07573732
45	0xbe11a994	-0.14224845
46	0xbded6259	-0.11591024
47	0xbe2af57d	-0.16695209
48	0xbe7eeb59	-0.24894466
49	0xbd4e1c47	-0.050319936
50	0xbe00baa1	-0.12571193
51	0xbdfd5163	-0.12369039
52	0xbdc34b51	-0.0953585
53	0xbe402959	-0.18765773
54	0xbe22681a	-0.15860024
55	0xbe79e3f4	-0.24403363
56	0xbe2172dc	-0.15766472
57	0xbdb5fb4d	-0.088858224
58	0xbe112fec	-0.14178437
59	0xbdf4d4dc	-0.11954662
60	0xbeb17960	-0.34662914
61	0xbe683fe2	-0.2268062
62	0xbe5a4dc9	-0.21318735
63	0xbe451192	-0.19244984
64	0xbe212f87	-0.15740786
65	0x3d092a3d	0.033487547
66	0xbe7a5b98	-0.24449003
67	0xbe6af6c7	-0.229457
68	0xbf14d45c	-0.58136535
69	0xbe997dd1	-0.29978803
70	0xbd953ce8	-0.072870076
71	0xbe0129d3	-0.12613611
72	0xbe808c77	-0.25107166
73	0xbe7e158a	-0.24812904
74	0xbdcc1f00	-0.0996685
75	0xbd91ac05	-0.07112888
76	0xbe84b230	-0.25917196
77	0xbe10367b	-0.14083283
78	0xbdf0f8e0	-0.11766219
79	0xbe6c9edd	-0.23107477
80	0xbe99a45c	-0.3000821
81	0xbdab0f5e	-0.083525404
82	0xbe8e5ae5	-0.27803722
83	0xbe2d7f8f	-0.16943191
84	0xbe42a4c9	-0.19008173
85	0xbea0b9ae	-0.31391662
86	0xbe922772	-0.2854572
87	0xbe880964	-0.26569664
88	0xbea320f0	-0.31861067
89	0xbe2f7d7f	-0.17137717
90	0xbe5907b7	-0.21194349
91	0xbe532bbf	-0.20622157
92	0xbe86c4c2	-0.2632199
93	0xbe50d7db	-0.20394842
94	0xbe7342e3	-0.23755984
95	0xbe7243c6	-0.23658666
96	0xbe6e64ec	-0.23280686
97	0xbe924c61	-0.28573897
98	0xbde9ae8c	-0.11410245
99	0xbda253ee	-0.079261646
100	0xbe2c9a6f	-0.16855787
101	0xbe1d03ad	-0.15333433
102	0xbe0c5242	-0.13703254
103	0xbea1c268	-0.31593633
104	0xbe1c5865	-0.15268095
105	0xbf117693	-0.56821555
106	0xbe30ece9	-0.17277874
107	0xbdb1ab38	-0.086752355
108	0xbe33892a	-0.17532793
109	0xbe5192c1	-0.20466138
110	0xbef1dc4d	-0.4723839
111	0xbea80d60	-0.32822704
112	0xbdc67d93	-0.0969192
113	0xbf2c1960	-0.6722622
114	0xbe8a8362	-0.27053362
115	0xbdae9f74	-0.08526507
116	0xbe81d401	-0.2535706
117	0xbe9d40a4	-0.3071338
118	0xbda08610	-0.078380704
119	0xbe8a4564	-0.27006066
120	0xbedb0d9e	-0.42783827
121	0xbe59f2c6	-0.21284017
122	0xbea66f16	-0.32506627
123	0xbe03aa6f	-0.12857984
124	0xbeac6481	-0.33670428
125	0xbe2dceb2	-0.16973379
126	0xbe9701a1	-0.2949343
127	0xbe719ee9	-0.23595776
